Pytorch/1/cnn.pth (torch, 251277 bytes, 10 tensors)

conv1.weight f4 [6, 3, 5, 5]
0.2218532 0.07764437 0.27996108 0.01787288 0.045007475 -0.009307001 0.023585495 0.09286777
0.0016676767 -0.030079557 0.18235369 -0.26093358 0.21968445 -0.0056911204 -0.147811 0.20069388
-0.368236 0.20394929 -0.02092729 -0.09700446 0.17015223 -0.33216718 0.08947474 -0.03805247
-0.1499998 -0.1412543 -0.2206638 0.0609675 -0.18307544 -0.09994532 -0.08308369 -0.13583769
0.124412924 -0.16601098 0.09695789 -0.05769617 -0.27757385 0.24701001 -0.06329599 0.03141253
0.02787157 -0.38350314 0.29005885 0.015334674 -0.075796016 0.17005423 -0.057355307 0.15606995
0.040142886 -0.013933724 -0.031678353 -0.1409232 0.07865568 -0.1421846 -0.059032768 0.04066631
-0.10038512 0.13388418 -0.096633136 -0.021778194 0.2255114 -0.23066555 0.23174667 -0.12330651
0.0008831691 0.16287524 -0.3541807 0.27161556 0.030736513 -0.25633663 0.20920786 -0.114988066
0.096701056 -0.036145557 -0.08870339 0.27577066 0.20624822 0.39233473 0.27339655 -0.21015948
0.29547074 0.2503657 0.3301735 -0.17775746 0.020424576 0.19558378 -0.27484915 -0.31669077
-0.29350695 0.3076349 -0.3637224 -0.4979473 -0.39539772 -0.22778867 -0.0951415 -0.119216725
-0.03397592 0.07116404 0.13662753 -0.085950315 0.1216635 0.19073291 0.37344804 0.02446615
-0.3560845 0.2769315 0.014368695 0.11259683 -0.18189241 -0.117055394 0.2307116 -0.42222968
-0.4246665 -0.31455034 0.31027424 -0.1522331 -0.3879153 -0.11606991 -0.0036312563 0.074449964
-0.10162161 0.2499845 0.2786661 0.30876407 0.13658793 -0.071436346 -0.24934644 0.098758996
-0.0508058 -0.28182828 0.117998235 -0.11145738 0.1683469 -0.14242697 0.0058178725 0.1797604
-0.30236715 -0.17191671 -0.1876802 0.38801447 -0.24371459 -0.16987818 0.10391914 0.016184976
-0.0009967735 0.093448356 0.16103522 0.36422744 0.19911867 -0.015209155 0.18281572 -0.0014942167
-0.23307373 0.12707952 -0.04960437 0.25002033 -0.40102494 -0.2502564 0.18986192 0.16793203
0.2804216 -0.5883719 -0.3177524 0.42155623 0.15188141 0.20242603 -0.4517502 -0.06443318
0.37269714 0.10693931 0.0059111416 -0.22068803 -0.05294777 0.14932546 0.09272691 0.050982084
-0.23725407 -0.051826775 0.09013629 0.1501083 0.1974821 -0.41502142 -0.15789798 0.18608317
0.16092435 0.22478695 -0.53840494 -0.1916101 0.34784985 0.04551506 0.10290082 -0.5795621
-0.15891476 0.31180662 0.10525959 0.007598525 -0.29022217 -0.1308678 0.116760574 -0.00089947094
0.090602435 -0.15450397 -0.17804432 0.052686058 0.044154912 0.12587026 -0.29254577 -0.16480593
0.2603893 0.10364047 0.03402056 -0.52805126 -0.12209196 0.40144536 0.28482124 0.17736892
-0.5392297 -0.02945754 0.36286882 0.14108092 0.16973616 -0.24215797 0.11539487 0.18337147
0.0697003 0.043300018 0.070330486 0.23673278 0.102805115 -0.09069669 0.065807156 0.25157312
0.358281 0.26302055 0.15428814 0.031911496 0.040036798 0.2520146 0.14050563 0.2463385
-0.0082490835 -0.04264278 -0.18632916 -0.07323311 -0.058600076 0.003839116 -0.11889561 -0.13367717
-0.20085403 -0.07946089 0.09168922 0.07207822 0.017526546 -0.10706308 -0.1784452 -0.03898825
00000000: 7c2d 633e 0304 9f3d 0f57 8f3e 256a 923c
00000010: c259 383d 647c 18bc 5e36 c13c 7531 be3d
00000020: f295 da3a 6769 f6bc edba 3a3e 1699 85be
00000030: f6f4 603e 947c babb c45b 17be b282 4d3e
00000040: 6e89 bcbe 15d8 503e b56f abbc 46aa c6bd
00000050: 633c 2e3e d111 aabe 883e b73d e8dc 1bbd
00000060: 8c99 19be f8a4 10be b1f5 61be 0fb9 793d
00000070: 2178 3bbe 22b0 ccbd c827 aabd 0919 0bbe
00000080: 34cc fe3d c8fe 29be dc91 c63d d252 6cbd
00000090: 291e 8ebe 31f0 7c3e 54a1 81bd 6daa 003d
000000a0: eb52 e43c 865a c4be 9882 943e 493e 7b3c
000000b0: f13a 9bbd b222 2e3e 66ed 6abd cdd0 1f3e
000000c0: de6c 243d 464a 64bc 29c1 01bd 2c4e 10be
000000d0: 3b16 a13d d798 11be 58cc 71bd b791 263d
000000e0: b796 cdbd ef18 093e 98e7 c5bd 2f68 b2bc
000000f0: 76ec 663e 9733 6cbe 004f 6d3e 2088 fcbd
00000100: 7a84 673a c4c8 263e 2c57 b5be 3211 8b3e
00000110: 24cb fb3c 8e3e 83be 963a 563e dd7e ebbd
00000120: 340b c63d 5d0d 14bd 1faa b5bd d031 8d3e
00000130: bc32 533e 19e0 c83e a2fa 8b3e 0c34 57be
00000140: f147 973e ef2f 803e 800c a93e 0d06 36be
00000150: 7151 a73c 1d47 483e 07b9 8cbe 4b25 a2be
00000160: 8b46 96be 5282 9d3e d339 babe f3f2 febe
00000170: 9271 cabe 6f41 69be 8cd9 c2bd e627 f4bd
00000180: 562a 0bbd 74be 913d 16e8 0b3e b806 b0bd
00000190: b72a f93d 7d4f 433e 9534 bf3e 3c6d c83c
000001a0: b550 b6be f7c9 8d3e ad6a 6b3c 2b99 e63d
000001b0: 0142 3abe bdba efbd a93f 6c3e 7d2e d8be
000001c0: e36d d9be be0c a1be 44dc 9e3e fee2 1bbe
000001d0: d69c c6be 10b6 edbd 5ffa 6dbb 3979 983d
000001e0: fe1e d0bd f0fb 7f3e 53ad 8e3e 5316 9e3e
000001f0: b5dd 0b3e 384d 92bd ac54 7fbe 2842 ca3d
00000200: be19 50bd cc4b 90be 0fa9 f13d c443 e4bd
00000210: 2163 2c3e 60d8 11be daa3 be3b 1c13 383e
00000220: decf 9abe ef0a 30be 3d2f 40be d5a9 c63e
00000230: 5190 79be 8cf4 2dbe 8fd3 d43d 5b96 843c
00000240: 2ba6 82ba da61 bf3d 6be6 243e 057c ba3e
00000250: c4e5 4b3e d22f 79bc 0b34 3b3e 98d9 c3ba
00000260: e1aa 6ebe 2221 023e f42d 4bbd aa02 803e
00000270: 2453 cdbe 9b21 80be 2a6b 423e 60f6 2b3e
00000280: 6c93 8f3e 8a9f 16bf 71b0 a2be 38d6 d73e
00000290: cd86 1b3e c548 4f3e cd4b e7be 8bf5 83bd
000002a0: 29d2 be3e ff02 db3d 40b2 c13b 0bfc 61be
000002b0: c3df 58bd c6e8 183e 9be7 bd3d 97d2 503d
000002c0: bbf2 72be 5048 54bd 6099 b83d fdb5 193e
000002d0: bf38 4a3e b07d d4be 02b0 21be 968c 3e3e
000002e0: 5ac9 243e 8d2e 663e e8d4 09bf 7035 44be
000002f0: 6019 b23e 006e 3a3d aabd d23d 2f5e 14bf
00000300: 8dba 22be 1ea5 9f3e 5792 d73d 0cfd f83b
00000310: 0098 94be 3502 06be 2b20 ef3d 79ca 6bba
00000320: c58d b93d 4a36 1ebe 4051 36be 56cd 573d
00000330: c8db 343d 22e4 003e 8fc8 95be e3c2 28be
00000340: bf51 853e 7441 d43d 2559 0b3d 5e2e 07bf
00000350: 590b fabd 3f8a cd3e 17d4 913e 33a0 353e
00000360: f50a 0abf f050 f1bc f1c9 b93e 8477 103e
00000370: 51cf 2d3e 42f8 77be 2554 ec3d bbc5 3b3e
00000380: 08bf 8e3d 5c5b 313d 6e09 903d 146a 723e
00000390: 7d8b d23d 30bf b9bd e7c5 863d 31ce 803e
000003a0: 9b70 b73e a1aa 863e b6fd 1d3e a1b5 023d
000003b0: a0fd 233d 0f08 813e b5e0 0f3e 2940 7c3e
000003c0: 2a27 07bc 32aa 2ebd 12cd 3ebe 3efb 95bd
000003d0: a206 70bd ae99 7b3b 8b7f f3bd abe2 08be
000003e0: aeac 4dbe 64bc a2bd 8fc7 bb3d bf9d 933d
000003f0: d593 8f3c e343 dbbd 57ba 36be 25b2 1fbd

conv1.bias f4 [6]
0.59283566 -0.13029437 -0.015747957 -0.0357276 0.956663 0.8271816
00000000: 14c4 173f e36b 05be dc01 81bc 1b57 12bd
00000010: dee7 743f 2cc2 533f

conv2.weight f4 [16, 6, 5, 5]
0.034300093 -0.038211193 -0.03926268 -0.059230253 -0.0591508 0.012186756 0.014901019 0.075539336
0.009884883 -0.10686441 0.030986384 0.11536341 0.11208531 0.09482859 -0.029404169 0.087977275
-0.014088151 -0.043978773 0.07637437 0.0054515754 0.10995489 -0.054410245 -0.03631801 0.025013506
0.04976391 0.0138288075 -0.024391145 -0.06725844 -0.013856963 0.108579814 0.03772828 0.005480751
-0.099042244 -0.09137494 -0.024726812 0.057439487 0.06356691 -0.029441945 0.06820537 -0.028414633
0.048833285 0.041454237 0.0676413 0.037707143 0.101775244 -0.058579285 -0.028275816 -0.010633118
-0.023846036 -0.033822954 -0.02855095 -0.050785214 0.0038586224 0.03907937 0.044862773 -0.12546758
-0.094124764 -0.037599 0.05120886 0.07586525 0.057872713 0.0009273263 -0.008881695 -0.015394343
-0.021961575 0.0020406812 0.024610054 -0.033165168 -0.14946517 -0.052315436 0.10596888 -0.08238225
-0.02505234 0.014101261 -0.018347066 0.05237922 0.023414735 0.098566204 0.08752222 0.012242104
0.010828904 0.035774473 0.052275244 -0.017872334 0.14637949 -0.01538293 0.06633134 0.05597597
0.052612133 0.034383174 -0.04170796 0.03150194 0.080188915 0.017823586 -0.04163812 -0.013114738
0.047766414 0.0093485825 0.021861356 -0.008821049 0.34529582 0.13480239 0.014753413 0.05442148
0.25671542 0.16673619 0.01761936 -0.02437628 -0.10358521 0.06530054 0.20608635 -0.024592783
-0.03645792 -0.11365409 0.054571684 0.27900133 0.073427424 0.004198091 0.12091528 -0.01727832
0.35534948 0.11773329 0.18281783 0.04763687 0.22516699 0.062886156 0.15724736 0.08387016
-0.053664975 0.0037124606 0.030229032 0.03286055 0.0023712774 -0.082753405 -0.1341577 -0.12557983
-0.09201575 -0.09679467 -0.10881157 -0.13269155 0.03378459 -0.097086996 -0.17261018 -0.06520246
-0.15783946 -0.018701779 0.017203758 -0.022209812 -0.02052449 -0.117689766 0.18996902 0.1655664
0.024691537 0.107066594 0.06821444 0.14832479 0.18285763 0.121264346 0.06482442 -0.034140512
0.15434027 0.006713682 -0.016004976 0.047788814 0.05412698 0.0069556893 0.05244618 0.057801373
0.1097756 -0.00704846 0.08945747 -0.027557533 -0.015203508 -0.0393866 0.018580653 -0.1031221
-0.16767275 -0.13240784 -0.08155875 -0.079908796 -0.17695646 -0.14474656 -0.08450354 -0.113237225
-0.06846374 -0.06873397 -0.10534865 0.0007485764 0.005354883 -0.029333448 -0.047797836 0.029753966
0.0526447 0.07239566 0.0817397 0.022132503 -0.035082582 0.15275048 0.09323392 0.031282037
-0.118758835 0.014346744 -0.10057079 -0.052957077 -0.07477585 0.05806366 0.051060356 -0.10219005
-0.016869204 0.049666796 0.041546494 0.013063467 -0.00019859485 -0.14185733 -0.11418182 -0.10295917
0.041742973 -0.19050366 -0.11411615 -0.038368855 -0.13844207 -0.267689 -0.21865344 -0.08025188
-0.047156423 -0.024226768 -0.20422375 -0.17103252 -0.15687385 -0.20621577 -0.18372792 -0.19625089
-0.15297225 -0.17628941 -0.09997344 -0.1653965 -0.17648308 -0.1859136 -0.15423161 -0.05347217
-0.0048116096 -0.11701499 -0.018829813 -0.074096054 -0.09028759 -0.033071637 0.004509782 -0.05535255
-0.07090561 -0.12956785 -0.16214557 -0.052707393 -0.0586483 -0.0053731557 0.02620308 -0.097163744
00000000: 417e 0c3d 5783 1cbd e7d1 20bd 6c9b 72bd
00000010: 1c48 72bd f6aa 473c 6723 743c 5eb4 9a3d
00000020: 34f4 213c badb dabd 28d7 fd3c a743 ec3d
00000030: fc8c e53d 7e35 c23d 03e1 f0bc 6e2d b43d
00000040: fdd1 66bc 1623 34bd 2a6a 9c3d 21a3 b23b
00000050: 0830 e13d 47dd 5ebd 32c2 14bd 20e9 cc3c
00000060: 3ed5 4b3d 3992 623c f0cf c7bc cbbe 89bd
00000070: 5108 63bc 185f de3d f888 1a3d df97 b33b
00000080: a9d6 cabd c922 bbbd e28f cabc ab45 6b3d
00000090: 5e2f 823d 3c30 f1bc 42af 8b3d cec5 e8bc
000000a0: 6905 483d ebcb 293d 8687 8a3d ce72 1a3d
000000b0: 8a6f d03d d5f0 6fbd afa2 e7bc 8836 2ebc
000000c0: c358 c3bc f089 0abd afe3 e9bc 2804 50bd
000000d0: f1e0 7c3b b111 203d 07c2 373d 937a 00be
000000e0: 7cc4 c0bd 6901 1abd 62c0 513d 3d5f 9b3d
000000f0: f00b 6d3d d117 733a 8784 11bc 8e38 7cbc
00000100: c3e8 b3bc f3bc 053b 069b c93c 33d8 07bd
00000110: 660d 19be b648 56bd 3606 d93d 06b8 a8bd
00000120: 913a cdbc fa08 673c 964c 96bc 988b 563d
00000130: 42d0 bf3c 14dd c93d da3e b33d 1b93 483c
00000140: b76b 313c 4188 123d 911e 563d 0069 92bc
00000150: 81e4 153e af08 7cbc bad8 873d 0f47 653d
00000160: d27f 573d 5fd5 0c3d f7d5 2abd 2e08 013d
00000170: 163a a43d c502 923c bc8c 2abd 33df 56bc
00000180: b7a6 433d cc2a 193c 9616 b33c 2986 10bc
00000190: 9dca b03e a309 0a3e 4db8 713c 0fe9 5e3d
000001a0: 3470 833e e4bc 2a3e 7a56 903c c4b0 c7bc
000001b0: 7c24 d4bd 4abc 853d 4d08 533e ce76 c9bc
000001c0: e654 15bd 7ac3 e8bd 8f86 5f3d 43d9 8e3e
000001d0: 1e61 963d 2490 893b 6ea2 f73d 438b 8dbc
000001e0: 5ef0 b53e 271e f13d 9934 3b3e e11e 433d
000001f0: 2d92 663e 75ca 803d 7405 213e 1ec4 ab3d
00000200: cecf 5bbd c14c 733b e0a2 f73c c998 063d
00000210: 6f67 1b3b 9e7a a9bd a360 09be 0098 00be
00000220: c172 bcbd 493c c6bd 9ad8 debd 4be0 07be
00000230: b661 0a3d 8cd5 c6bd b9c0 30be de88 85bd
00000240: aba0 21be 7934 99bc e5ee 8c3c 5af1 b5bc
00000250: fa22 a8bc 5507 f1bd 3d87 423e 3d8a 293e
00000260: e845 ca3c bb45 db3d 03b4 8b3d 74e2 173e
00000270: 083f 3b3e 7159 f83d aac2 843d ecd6 0bbd
00000280: 600b 1e3e 72fe db3b de1c 83bc 34be 433d
00000290: 41b4 5d3d 8dec e33b ced1 563d 22c1 6c3d
000002a0: 08d2 e03d c5f6 e6bb 7a35 b73d 56c0 e1bc
000002b0: 2218 79bc d853 21bd 7436 983c ae31 d3bd
000002c0: 68b2 2bbe ec95 07be 4608 a7bd 39a7 a3bd
000002d0: 1334 35be 7138 14be 3110 adbd ebe8 e7bd
000002e0: b836 8cbd 65c4 8cbd 08c1 d7bd 1d3c 443a
000002f0: 0478 af3b b34c f0bc aac7 43bd 97be f33c
00000300: f8a1 573d 2d44 943d 2567 a73d 394f b53c
00000310: c1b2 0fbd 9f6a 1c3e 6df1 be3d 9821 003d
00000320: d537 f3bd 9b0e 6b3c 0ff8 cdbd 85e9 58bd
00000330: 1524 99bd 29d4 6d3d aa24 513d 0449 d1bd
00000340: 4931 8abc 696f 4b3d a82c 2a3d 2708 563c
00000350: e63d 50b9 0c43 11be 28d8 e9bd 42dc d2bd
00000360: aefa 2a3d 6413 43be bab5 e9bd a928 1dbd
00000370: c2c3 0dbe 880e 89be b0e6 5fbe 195b a4bd
00000380: 1827 41bd 3777 c6bc 0820 51be 2623 2fbe
00000390: 8aa3 20be 3a2a 53be 2c23 3cbe fef5 48be
000003a0: c2a4 1cbe 3685 34be e0be ccbd b35d 29be
000003b0: fbb7 34be 2260 3ebe e4ee 1dbe a205 5bbd
000003c0: b5aa 9dbb 8ea5 efbd fb40 9abc acbf 97bd
000003d0: b3e8 b8bd 2076 07bd cbc6 933b 5bb9 62bd
000003e0: f636 91bd 6fad 04be 7d09 26be b5e3 57bd
000003f0: 3339 70bd 4c11 b0bb d7a7 d63c c9fd c6bd

conv2.bias f4 [16]
0.0072519337 0.6513296 0.42313847 -0.07840992 0.14347441 0.00876819 0.035896033 0.5237245
-0.3300633 -0.21880174 0.031569384 -0.5921014 -0.0799644 -0.244484 -0.17723888 -0.011209295
00000000: a1a1 ed3b 89bd 263f 9ba5 d83e 6195 a0bd
00000010: f5ea 123e 74a8 0f3c b807 133d cf12 063f
00000020: 0ffe a8be 900d 60be e64e 013d f593 17bf
00000030: 60c4 a3bd 045a 7abe 1c7e 35be 31a7 37bc

fc1.weight f4 [120, 400]
0.05702417 0.024367122 -0.014992091 0.08335053 0.10464542 0.10373543 -0.07996984 -0.09856992
0.005758791 0.10873472 0.02109176 -0.09514623 -0.10917354 -0.09109325 0.021498993 0.09207362
-0.035265133 -0.087181196 -0.05900436 0.011826942 0.18974392 0.026358755 -0.099385515 -0.016568618
-0.008783179 0.027632566 -0.010581836 0.00771892 -0.015772212 0.11848785 0.07206286 -0.041507874
-0.094020195 -0.050389208 0.051270835 0.07848462 -0.016136838 -0.060894106 -0.00596847 0.07778729
0.0005178284 -0.04025055 -0.017481703 0.0040194066 0.0650418 -0.012133053 0.025986874 -0.09737447
-0.01630847 0.099710494 0.035927754 -0.00985143 0.04755713 -0.04771711 0.023320673 0.020483304
0.05304859 0.06565751 0.0515853 -0.0012236419 0.03063969 0.088516094 0.07784489 0.06382963
-0.023798363 0.034965802 0.039666004 0.06111465 0.042028964 -0.0037464509 -0.025610246 0.056662664
0.0079893945 0.018064978 -0.060728714 0.030205823 0.0014565092 0.05087255 -0.0091506 0.030350821
0.012239119 -0.03671776 0.0032150457 -0.013333055 -0.013781817 -0.024366803 0.0001223288 0.04189112
0.008551351 -0.0057146098 0.044316843 -0.0055930153 0.023870356 0.041008368 0.018992515 -0.04130261
0.052501522 0.048007134 0.0122670205 0.012165389 -0.0033076198 -0.024238309 -0.0033963718 0.05285471
0.059638336 -0.009417573 0.010120862 0.015673716 0.02852363 0.023137543 -0.030002737 -0.043253522
-0.057807047 -0.00082975434 0.05056691 -0.0014670909 0.02191535 0.041033786 0.0012911061 0.06816808
-0.028736142 -0.044945836 -0.07520165 0.063727096 0.071097605 -0.02725745 0.0036373527 -0.036040206
-0.046918947 -0.041520562 -0.008782098 -0.031465154 -0.009437628 -0.0035627333 -0.107334204 -0.019991716
0.01701784 -0.0073806997 -0.036609944 -0.08761711 0.045373853 -0.0458418 -0.059472065 -0.07015565
0.053432096 0.133912 0.0025761216 -0.007881302 -0.041970935 0.048844226 0.011073246 -0.0040258057
0.0014082801 0.020799316 0.08725366 0.031044595 0.011069129 -0.0029242437 -0.0024396605 -0.040173914
-0.0066353274 0.0063739615 -0.07672444 0.018720599 -0.014410697 -0.011321071 -0.034956057 -0.068270296
-0.054841712 -0.041407004 0.058294572 -0.0056016473 0.0298742 -0.023592707 0.022258861 0.10109057
0.0593261 0.038752656 0.058001537 -0.015026874 0.05751652 0.058324825 0.0037501554 0.05674625
0.001177976 0.026824895 0.04596249 0.0068520755 0.016788378 0.047160495 0.08361476 -0.017442843
-0.067837164 0.009794727 0.03205861 0.039704055 0.03599448 -0.003117512 0.047262844 0.04299554
-0.049845014 0.037100498 -0.028745808 -0.02636771 -0.11335448 -0.037386995 0.03757819 0.029408894
-0.00217675 -0.047578275 -0.10043495 -0.029122656 -0.046376422 -0.0550504 -0.08502566 0.0093773585
-0.047863923 0.03954108 0.012961307 -0.07132986 0.043477003 0.014400113 0.014262843 0.019083299
-0.0049038683 0.0306907 0.110363446 0.070690505 -0.027748447 -0.023547975 -0.038823992 0.022805678
0.047378242 -0.020925246 0.011451706 0.06183 0.034268815 -0.009696812 -0.0045927013 -0.069990255
0.013876519 -0.038491935 -0.015066958 0.014863562 0.06890191 0.0129521815 0.061473172 -0.02385554
0.03687082 -0.06186733 -0.0063440707 -0.035954956 -0.03154154 0.044438455 0.017152471 0.024372473
00000000: 2d92 693d 8f9d c73c 63a1 75bc afb3 aa3d
00000010: 5750 d63d 3e73 d43d 3ac7 a3bd 07df c9bd
00000020: 3eb4 bc3b 4fb0 de3d a0c8 ac3c 07dc c2bd
00000030: 6096 dfbd 198f babd a81e b03c 1891 bc3d
00000040: 2c72 10bd 0e8c b2bd 8eae 71bd cac5 413c
00000050: 3b4c 423e 51ee d73c a28a cbbd e9ba 87bc
00000060: 53e7 0fbc b15d e23c 705f 2dbc feee fc3b
00000070: ba34 81bc c2a9 f23d b195 933d 2904 2abd
00000080: a98d c0bd ea64 4ebd 5e01 523d 8bbc a03d
00000090: 6731 84bc 196c 79bd 2893 c3bb f14e 9f3d
000000a0: e0be 073a c3dd 24bd ca35 8fbc 3ab5 833b
000000b0: a334 853d b6c9 46bc 6de2 d43c 446c c7bd
000000c0: 5799 85bc 0435 cc3d fb28 133d e467 21bc
000000d0: 44cb 423d 0473 43bd ff0a bf3c 9acc a73c
000000e0: 7a49 593d 7277 863d 1c4b 533d 9c62 a0ba
000000f0: 1600 fb3c ed47 b53d 246d 9f3d 1cb9 823d
00000100: c9f4 c2bc 4d38 0f3d d278 223d 5b53 7a3d
00000110: 9026 2c3d 0487 75bb 94cc d1bc 1c17 683d
00000120: f3e5 023c 01fd 933c acbe 78bd 3472 f73c
00000130: 57e8 be3a bc5f 503d 66ec 15bc 49a2 f83c
00000140: 9686 483c 5d65 16bd 84b3 523b e372 5abc
00000150: 21cd 61bc e49c c7bc 6345 0039 0696 2b3d
00000160: f71a 0c3c 9f41 bbbb 9485 353d 9d45 b7bb
00000170: c48b c33c 64f8 273d 3196 9b3c ed2c 29bd
00000180: d60b 573d 21a3 443d 9dfb 483c 5751 473c
00000190: a7c4 58bb 6b8f c6bc aa95 5ebb 2e7e 583d
000001a0: 5447 743d 2a4c 1abc f9d1 253c 2a66 803c
000001b0: 63aa e93c f28a bd3c 4dc8 f5bc 9b2a 31bd
000001c0: 15c7 6cbd df83 59ba 401f 4f3d 674b c0ba
000001d0: d287 b33c 0b13 283d 553a a93a b59b 8b3d
000001e0: 0f68 ebbc 2019 38bd 5303 9abd 5a83 823d
000001f0: 9f9b 913d 044b dfbc a760 6e3b e59e 13bd
00000200: 152e 40bd 7711 2abd cae2 0fbc 9be1 00bd
00000210: 48a0 1abc bf7c 69bb 09d2 dbbd abc5 a3bc
00000220: ff68 8b3c ccd9 f1bb 4ff4 15bd 9970 b3bd
00000230: efd9 393d 9cc4 3bbd fb98 73bd c4ad 8fbd
00000240: 9ddb 5a3d 3a20 093e 26d4 283b 9420 01bc
00000250: b7e9 2bbd e210 483d 8f6c 353c e8ea 83bb
00000260: 0a96 b83a 5463 aa3c 0cb2 b23d 3c51 fe3c
00000270: 4b5b 353c aba4 3fbb b6e2 1fbb 678d 24bd
00000280: 296d d9bb aadc d03b b421 9dbd f15b 993c
00000290: d81a 6cbc 037c 39bc 152e 0fbd 4cd1 8bbd
000002a0: b4a1 60bd 649a 29bd 4ac6 6e3d 068e b7bb
000002b0: bdba f43c 7e45 c1bc 3758 b63c 9308 cf3d
000002c0: edff 723d 1bbb 1e3d 0593 6d3d 4733 76bc
000002d0: 7196 6b3d 03e6 6e3d 2bc5 753b c16e 683d
000002e0: 5166 9a3a e2bf db3c 2a43 3c3d 6087 e03b
000002f0: c887 893c 5d2b 413d 373e ab3d 4be4 8ebc
00000300: 36ee 8abd 107a 203c e44f 033d b8a0 223d
00000310: f36e 133d 2c4f 4cbb af96 413d 171c 303d
00000320: 492a 4cbd b1f6 173d 547c ebbc 1901 d8bc
00000330: 6526 e8bd 1b23 19bd 97eb 193d ecea f03c
00000340: cea7 0ebb 70e1 42bd d7b0 cdbd a392 eebc
00000350: 34f5 3dbd 877c 61bd ef21 aebd 7ea3 193c
00000360: f60c 44bd d4f5 213d a95b 543c 6415 92bd
00000370: f114 323d 74ee 6b3c b3ae 693c 9454 9c3c
00000380: a1b0 a0bb 106b fb3c 3b06 e23d 2fc6 903d
00000390: b650 e3bc afe7 c0bc e805 1fbd f9d2 ba3c
000003a0: b00f 423d 6c6b abbc f09f 3b3c 7441 7d3d
000003b0: 755d 0c3d 61df 1ebc 5f7e 96bb 0d57 8fbd
000003c0: 575a 633c b8a9 1dbd 67db 76bc 4c86 733c
000003d0: 721c 8d3d 6335 543c 4bcb 7b3d b26c c3bc
000003e0: db05 173d 9968 7dbd ece1 cfbb 8145 13bd
000003f0: b431 01bd 1905 363d 5783 8c3c c8a8 c73c

fc1.bias f4 [120]
0.11403945 0.0193124 -0.084713206 0.090791546 -0.023612497 -0.008199416 0.13122986 -0.011982987
-0.045408208 0.0032495516 0.042282455 -0.02846343 0.018777065 0.015624485 -0.10524345 0.04132586
0.0011126548 -0.1116142 0.044528976 0.10977993 0.08700108 -0.03332398 0.07069401 -0.035159938
0.020209046 -0.031402905 -0.01496727 0.051802423 0.076422885 0.033101413 0.03787764 0.023118347
0.0044065574 0.01685546 0.028268715 0.060698614 0.1251481 -0.00038871984 -0.13346533 0.09409748
-0.043920357 0.11147321 -0.008760484 -0.036383063 -0.0019985475 -0.016238322 0.018533826 0.05646777
-0.016119264 0.044465214 -0.06260643 -0.08122399 -0.04034703 0.051105354 -0.050535813 -0.023554493
0.012923797 0.07420402 -0.038028214 0.07882157 0.0055240025 0.0072862217 0.083261654 -0.08935078
0.11214648 0.08233662 0.049132004 -0.04709203 0.06540421 -0.13382643 -0.011377118 0.056392938
-0.07086298 -0.016497394 0.14879832 0.08823729 0.06002755 0.094180204 -0.06703262 0.057613783
0.05838128 -0.011219321 -0.07993389 0.05540022 -0.009045957 0.16768837 -0.03504972 -0.017710691
-0.07850489 -0.005573154 0.07201645 -0.07270027 0.06116059 -0.023056466 0.05637171 -0.014786719
-0.07714637 -0.0007929544 0.101101585 -0.05223796 0.0035465835 -0.0028153078 -0.024054851 -0.008381208
-0.056310337 0.07778103 0.04165778 -0.04366775 0.078641206 0.07344207 0.16728461 -0.03472997
-0.026977044 0.005104052 0.029473461 -0.028680852 -0.10351686 -0.0013927866 -0.12394255 0.013330024
00000000: 848d e93d 0a35 9e3c 1e7e adbd ebf0 b93d
00000010: ff6e c1bc d856 06bc 1f61 063e 4a54 44bc
00000020: f5fd 39bd 6ef6 543b 5e30 2d3d 242c e9bc
00000030: 5cd2 993c d7fd 7f3c e189 d7bd 4e45 293d
00000040: 80d6 913a fc95 e4bd 0464 363d 4dd4 e03d
00000050: 9f2d b23d ba7e 08bd 05c8 903d de03 10bd
00000060: 718d a53c 55a0 00bd 4839 75bc c72e 543d
00000070: 9a83 9c3d 5995 073d 9625 1b3d b062 bd3c
00000080: e264 903b 7614 8a3c cb93 e73c 1c9f 783d
00000090: d326 003e 18cd cbb9 23ab 08be 2eb6 c03d
000000a0: d5e5 33bd 114c e43d 2288 0fbc 6806 15bd
000000b0: 10fa 02bb 3b06 85bc 40d4 973c c04a 673d
000000c0: 8c0c 84bc 2821 363d cd37 80bd c358 a6bd
000000d0: ed42 25bd d953 513d a4fe 4ebd 5af5 c0bc
000000e0: 55be 533c 47f8 973d 79c3 1bbd 346d a13d
000000f0: b102 b53b 42c1 ee3b 1685 aa3d 8bfd b6bd
00000100: 0ead e53d 1aa0 a83d a43e 493d 93e3 40bd
00000110: a4f2 853d cc09 09be 1767 3abc 48fc 663d
00000120: 9c20 91bd 8b25 87bc 965e 183e c1b5 b43d
00000130: 73df 753d 8de1 c03d 6648 89bd 6efc 6b3d
00000140: 3621 6f3d 3ed1 37bc 61b4 a3bd 57eb 623d
00000150: 7e35 14bc 80b6 2b3e 4c90 0fbd 0316 91bc
00000160: 2cc7 a0bd 019f b6bb 5c7d 933d e1e3 94bd
00000170: 8783 7a3d eae0 bcbc 06e6 663d ff43 72bc
00000180: ebfe 9dbd 45de 4fba 590e cf3d 79f7 55bd
00000190: cc6d 683b 0781 38bb ae0e c5bc 5651 09bc
000001a0: aba5 66bd a94b 9f3d 59a1 2a3d f4dc 32bd
000001b0: a40e a13d cc68 963d a84c 2b3e 0341 0ebd
000001c0: f6fe dcbc e43f a73b 5472 f13c 1bf4 eabc
000001d0: a600 d4bd 2a8e b6ba 97d5 fdbd 2c66 5a3c

fc2.weight f4 [84, 120]
0.004429069 0.036664102 -0.04076574 -0.092298985 0.091699675 0.07855907 0.050277505 0.049707167
0.076885626 -0.023476267 0.10162676 0.06012857 0.017314678 0.05570248 0.065153845 0.07910321
0.039793238 -0.13206479 0.0899475 0.11538612 0.039909773 -0.040245842 0.009219771 0.03972253
0.09500252 0.047805663 -0.09851184 0.08785158 -0.036394212 0.07545523 0.07477439 -0.048491888
-0.0488712 0.10186403 0.07504677 0.04398586 0.0049597397 0.0015152005 -0.117454916 -0.018612664
0.06567171 -0.08167387 -0.075422354 0.011329201 0.075151406 0.12590128 0.019425774 -0.07194685
0.07262569 0.06997437 -0.019270074 -0.101652324 0.010571456 0.0152879385 -0.027152257 0.06919085
-0.026750918 0.0148773715 -0.041427877 0.012463059 -0.0031679608 0.046364337 -0.026660278 0.0029153135
0.059981313 0.08770617 0.05975889 0.10506492 -0.049994506 -0.03480587 0.022907708 -0.040021487
-0.0016736761 0.10405211 0.047177836 -0.0265129 -0.05248168 0.10443974 -0.0064586145 0.056642167
0.053655773 -0.0016047711 -0.09137495 0.039552804 0.045194015 0.048495267 -0.023483042 0.012980822
-0.06569153 -0.08308643 0.05577539 -0.09543544 -0.04660787 -0.076592594 0.034187406 -0.05191878
0.04696295 0.077691 -0.042405717 -0.008546091 -0.073583074 -0.092707686 -0.021474859 -0.031260077
0.08761278 0.082236625 0.001972907 -0.045301374 -0.018929198 -0.047909755 0.031089101 -0.016537417
-0.055001352 -0.04316592 -0.04288744 -0.07005585 -0.053232186 -0.00088944886 -0.08531463 -0.01853814
-0.14356974 0.1573199 0.10140382 0.11001781 -0.073728904 0.10702093 0.06517131 0.07949705
0.049806084 0.08336067 0.03934245 -0.06549689 0.07307965 0.051563017 -0.08483765 0.03259443
0.009562494 0.020425605 0.07530852 -0.084893025 -0.02204873 0.1490882 0.035043895 0.15382342
0.092841245 0.038143747 0.013679692 0.089474685 -0.09694463 -0.049064796 0.10583317 0.10347033
-0.13513008 0.10243665 0.053190373 0.08098816 0.02183013 0.021867102 -0.071918964 0.02001126
0.002465735 0.026477972 -0.028252097 -0.084486745 -0.030432453 0.036073618 0.012650088 0.08898338
0.071685866 0.07036795 -0.019506706 -0.030071119 0.082926385 -0.034201708 -0.1183033 -0.12718998
0.0014816946 -0.011329815 0.08812912 -0.0892543 -0.032830782 -0.020639133 0.1080053 0.16483445
-0.09009872 -0.055999216 0.008377434 0.0056422343 0.024921253 -0.054018155 0.07156899 -0.025060391
0.07635667 -0.08272316 0.12968417 -0.11417058 -0.011556232 -0.12594724 -0.023794686 0.0446125
0.0395883 -0.038569935 -0.019087866 0.08766602 -0.1152022 -0.09077227 0.032630935 -0.053240933
0.0009523201 -0.01590459 -0.058169052 0.0041132374 0.013731513 0.10350305 -0.011052725 0.12765463
0.0147500085 0.014993105 0.035705455 -0.064390846 -0.07885949 -0.01169088 0.111066565 -0.08526565
0.04042914 0.09104316 -0.07712332 -0.0957141 0.018194146 -0.022766253 0.07564711 0.0033419982
0.08996544 -0.011623772 -0.03413863 0.04973009 0.011597694 0.026802376 -0.018450556 -0.0013315926
0.014934385 -0.16499896 -0.019409487 0.053457122 0.019464958 -0.087431215 0.12558605 0.056393478
-0.08642814 -0.083376184 0.1029602 -0.015271878 -0.13024193 0.057503246 -0.061330177 -0.040887143
00000000: b921 913b 192d 163d faf9 26bd 4007 bdbd
00000010: 0acd bb3d 94e3 a03d c9ef 4d3d be99 4b3d
00000020: 3676 9d3d 4d51 c0bc b121 d03d 6049 763d
00000030: 83d7 8d3c 4928 643d 616f 853d dd00 a23d
00000040: 3cfe 223d fe3b 07be 6536 b83d 8f4f ec3d
00000050: 6e78 233d d3d8 24bd 860e 173c 17b4 223d
00000060: ae90 c23d dfcf 433d 93c0 c9bd 87eb b33d
00000070: 1912 15bd 4688 9a3d 5123 993d 6e9f 46bd
00000080: 2b2d 48bd 179e d03d 1fb2 993d 842a 343d
00000090: 5085 a23b b199 c63a 348c f0bd 9679 98bc
000000a0: e47e 863d a144 a7bd 0977 9abd 1d9e 393c
000000b0: fbe8 993d 44ec 003e cd22 9f3c df58 93bd
000000c0: c7bc 943d b94e 8f3d 46dc 9dbc 182f d0bd
000000d0: e633 2d3c 437a 7a3c 696e debc efb3 8d3d
000000e0: be24 dbbc 38c0 733c 47b0 29bd dc31 4c3c
000000f0: 909d 4fbb 88e8 3d3d a866 dabc d80e 3f3b
00000100: f7ae 753d 4b9f b33d bdc5 743d 472c d73d
00000110: 0ac7 4cbd 9a90 0ebd f2a8 bb3c 92ed 23bd
00000120: 405f dbba 4619 d53d 8c3d 413d 9531 d9bc
00000130: 08f7 56bd 81e4 d53d c9a2 d3bb 9e01 683d
00000140: 28c6 5b3d 2f57 d2ba ca22 bbbd 1f02 223d
00000150: 5c1d 393d f9a2 463d 825f c0bc 83ad 543c
00000160: 4889 86bd 3829 aabd bc74 643d a873 c3bd
00000170: e5e7 3ebd 94dc 9cbd 1808 0c3d c9a8 54bd
00000180: 395c 403d 761c 9f3d 9eb1 2dbd e704 0cbc
00000190: b9b2 96bd 87dd bdbd 0bec afbc 910a 00bd
000001a0: 546e b33d ad6b a83d e34b 013b ef8d 39bd
000001b0: 6811 9bbc 053d 44bd 92ae fe3c 7a79 87bc
000001c0: 1949 61bd bfce 30bd beaa 2fbd 7179 8fbd
000001d0: fe09 5abd e729 69ba 70b9 aebd 4cdd 97bc
000001e0: f203 13be 7818 213e ceac cf3d 0451 e13d
000001f0: 2eff 96bd ca2d db3d 8978 853d 59cf a23d
00000200: 7701 4c3d 00b9 aa3d 8d25 213d 3c23 86bd
00000210: c9aa 953d be33 533d 5dbf adbd bd81 053d
00000220: 02ac 1c3c 9953 a73c 5a3b 9a3d 65dc adbd
00000230: 8a9f b4bc 94aa 183e 308a 0f3d e383 1d3e
00000240: 8d23 be3d 9e3c 1c3d c920 603c 813e b73d
00000250: e88a c6bd 2bf8 48bd 10bf d83d 41e8 d33d
00000260: 8a5f 0abe 4eca d13d 26de 593d 1fdd a53d
00000270: 1ad5 b23c a322 b33c 404a 93bd a7ee a33c
00000280: 2b98 213b 55e8 d83c f170 e7bc 6307 adbd
00000290: 7b4d f9bc eec1 133d 5142 4f3c eb3c b63d
000002a0: 0ad0 923d 121d 903d 87cc 9fbc b557 f6bc
000002b0: 4fd5 a93d 1717 0cbd 0049 f2bd 173e 02be
000002c0: 6c35 c23a b0a0 39bc 0a7d b43d f5ca b6bd
000002d0: 9279 06bd 6613 a9bc e231 dd3d 5dca 283e
000002e0: ad85 b8bd 6f5f 65bd 8141 093c 7ee2 b83b
000002f0: a827 cc3c 2442 5dbd c392 923d 734b cdbc
00000300: e360 9c3d c36a a9bd edcb 043e 44d2 e9bd
00000310: 5a56 3dbc 50f8 00be 13ed c2bc 99bb 363d
00000320: 5727 223d 82fb 1dbd 285e 9cbc 3e8a b33d
00000330: 22ef ebbd d0e6 b9bd 04a8 053d 2a13 5abd
00000340: 1fa5 793a 584a 82bc ac42 6ebd 56c8 863b
00000350: 24fa 603c 68f9 d33d 7d16 35bc e5b7 023e
00000360: 05aa 713c a4a5 753c e23f 123d 59df 83bd
00000370: 1681 a1bd 1b8b 3fbc de76 e33d c29f aebd
00000380: 0799 253d d674 ba3d d5f2 9dbd c105 c4bd
00000390: e40b 953c 4b80 babc dfec 9a3d 6d05 5b3b
000003a0: cd3f b83d a271 3ebc f3d4 0bbd c7b1 4b3d
000003b0: 4104 3e3c a890 db3c 9f25 97bc d588 aeba
000003c0: 5aaf 743c 7df5 28be a500 9fbc dbf5 5a3d
000003d0: fa74 9f3c 230f b3bd a199 003e d9fc 663d
000003e0: 3d01 b1bd 22c1 aabd ccdc d23d e636 7abc
000003f0: 245e 05be 8688 6b3d 5a35 7bbd 4779 27bd

fc2.bias f4 [84]
0.077550456 -0.07552084 0.17287652 -0.10654104 0.06343629 -0.002664582 0.082630634 -0.1440259
0.033730067 -0.005262345 -0.09450002 -0.033020645 0.062028058 0.03771447 0.25255767 -0.020303516
-0.057716034 0.068787314 -0.013417817 -0.08738466 -0.052565582 0.28488982 -0.01716499 0.11169355
-0.041949406 -0.05887772 0.15764442 -0.15611184 0.07351147 -0.08455822 0.052150138 -0.12636028
0.1758315 -0.059723616 -0.012287846 0.00235433 -0.08574319 0.17078984 -0.09308854 0.0045554526
-0.015926663 0.08143473 0.07069423 -0.12265843 -0.08766817 0.056121767 0.03251373 0.043880396
-0.07098043 0.0029742555 0.03528839 -0.08183739 -0.023174332 -0.14272693 0.03723167 0.11056137
-0.13928632 0.122326 -0.088220336 -0.0029428294 -0.12192129 0.060587127 0.07755897 0.013134291
0.063096784 0.073946364 0.13069692 -0.042029478 0.23386528 -0.044135228 -0.043172065 0.28363702
-0.010903147 -0.039159063 -0.012411687 -0.08325236 0.17698376 -0.032838434 -0.0032053895 -0.0137008205
0.019869085 0.015584204 0.08245688 0.09550486
00000000: c6d2 9e3d acaa 9abd 8b06 313e 3032 dabd
00000010: e3ea 813d 45a0 2ebb 403a a93d 877b 13be
00000020: 8a28 0a3d c06f acbb 3a89 c1bd a840 07bd
00000030: 2211 7e3d 7d7a 1a3d 3d4f 813e 8f53 a6bc
00000040: a667 6cbd 5de0 8c3d 67d6 5bbc bbf6 b2bd
00000050: 024f 57bd 14dd 913e 989d 8cbc 97bf e43d
00000060: 24d3 2bbd c429 71bd 8a6d 213e c8db 1fbe
00000070: 2e8d 963d dc2c adbd 629b 553d 9764 01be
00000080: 2c0d 343e c0a0 74bd f652 49bc 1a4b 1a3b
00000090: 209a afbd 88e3 2e3e 34a5 bebd e845 953b
000000a0: a278 82bc 40c7 a63d 23c8 903d 5834 fbbd
000000b0: 5f8b b3bd f0df 653d 1e2d 053d eebb 333d
000000c0: 305e 91bd baeb 423b 8f8a 103d 5d9a a7bd
000000d0: 19d8 bdbc 0227 12be 3c80 183d 006e e23d
000000e0: 13a1 0ebe 0e86 fa3d ddac b4bd 7cdc 40bb
000000f0: dfb1 f9bd 352a 783d 3dd7 9e3d 3631 573c
00000100: e338 813d 3171 973d 6ad5 053e 1a27 2cbd
00000110: 617a 6f3e 24c7 34bd 31d5 30bd df38 913e
00000120: 1da3 32bc 4165 20bd 635a 4bbc 3780 aabd
00000130: 3b3b 353e 9881 06bd 8311 52bb 6879 60bc
00000140: 7ec4 a23c e454 7f3c 27df a83d 0d98 c33d

fc3.weight f4 [10, 84]
0.0074548246 -0.022284511 -0.0826047 -0.05137602 -0.018459992 0.1481484 -0.05573002 -0.19174717
-0.026166465 0.1021577 -0.011537647 0.08608181 0.08073104 0.021806616 0.37331972 -0.25019112
-0.05203807 0.08993841 -0.099139065 -0.027646068 0.18833335 -0.19312343 -0.1966121 0.15982206
-0.07040811 0.27575973 -0.19555682 0.18816207 -0.10989835 0.19894508 -0.12541926 -0.016541144
0.28755885 -0.15017785 0.017914195 -0.038062315 0.05194604 0.21302982 -0.06071675 0.06562912
0.15384167 0.10220989 -0.24436375 -0.04134991 0.06631814 0.2212634 -0.12644155 -0.17985982
-0.17407267 0.05196535 -0.14806774 -0.14468214 -0.15382251 0.08620302 -0.29306912 -0.0839099
-0.17313021 -0.08417109 -0.042693462 -0.03585817 0.253663 -0.02902124 -0.15496911 0.19504938
0.017789684 0.060471747 -0.06842528 0.1295621 0.1275007 0.22230227 -0.25287223 0.12326635
0.121619195 -0.03234143 0.203151 -0.06802253 0.14607337 0.14787409 0.1909495 0.008633007
-0.018561257 -0.08891352 0.37668455 -0.2357413 -0.14531456 0.21691859 -0.24511987 -0.054805107
0.100809574 0.09179325 -0.11621703 0.23568909 0.09596978 0.040468697 -0.21290891 0.006866291
-0.017582504 0.15826702 -0.29466465 -0.044227287 -0.22359093 0.013992968 0.107671194 0.08040472
0.041302778 -0.15738428 -0.15317822 -0.15396512 0.18223272 0.13706364 -0.11583292 0.31494004
0.10060346 -0.018139118 0.038052574 -0.08732319 -0.27277976 -0.035099074 0.017781286 0.37923887
-0.05621182 -0.1893261 0.046051297 0.14294666 -0.19175163 -0.21251406 -0.13033882 0.24666126
0.12660545 0.07588656 -0.32211035 0.16235417 0.10794902 0.095322676 0.082355306 -0.027604
0.19810277 0.14985862 0.17399359 0.20413147 0.15525143 -0.11142308 0.053616676 -0.023311961
0.1133107 -0.371773 0.00056611764 0.104357764 -0.16381843 0.11613679 -0.10948767 -0.021308547
-0.035843655 -0.13099618 0.04644456 -0.416812 0.03862901 -0.008752186 0.062376395 -0.022354117
-0.20240523 0.23908085 -0.03721306 0.17712711 0.043307196 0.03253939 -0.1375626 -0.19602485
0.183296 -0.056310583 -0.1170071 0.08626053 -0.06364964 0.30041552 -0.11413275 -0.2722345
-0.059203204 -0.056553792 0.14354426 -0.01592948 0.27571794 -0.24492672 0.011546244 -0.08375291
0.12062051 -0.08991833 0.031128025 -0.021011848 -0.08404275 0.38223904 -0.047426388 0.26032257
0.050958008 0.14841335 -0.17675562 -0.30154285 0.17225723 0.24566276 0.25566617 0.25931934
-0.10373435 0.10697229 -0.091356 -0.17357829 -0.07453034 -0.021778781 -0.10020791 -0.024614893
0.22455424 0.31570566 -0.01983539 0.04580952 0.092015386 0.20173451 0.010297505 0.0466508
-0.1500422 0.17461711 -0.02354875 0.0013730001 0.18318053 0.22253804 0.15748657 0.009640141
0.020307172 0.11139586 0.03699317 -0.12416356 -0.18818195 0.060789812 0.08369933 0.15820824
-0.2566879 -0.07004489 0.28109485 -0.14308482 -0.04803536 -0.088932745 -0.08500832 0.3618712
0.0308648 0.10499649 -0.01101404 0.09123013 0.044124603 -0.27188885 0.06564113 -0.16173364
-0.1313833 -0.15272444 -0.05616228 0.122709095 0.066395275 0.118424624 0.13272786 0.057347417
00000000: 9a47 f43b 028e b6bc a72c a9bd a96f 52bd
00000010: 6939 97bc 37b4 173e 2945 64bd 5f59 44be
00000020: 0e5b d6bc 0e38 d13d 6608 3dbc a94b b03d
00000030: 5156 a53d caa3 b23c c323 bf3e 0d19 80be
00000040: df25 55bd a131 b83d 6c09 cbbd 027a e2bc
00000050: 75da 403e 26c2 45be af54 49be 65a8 233e
00000060: 2132 90bd 6130 8d3e 0c40 48be 8fad 403e
00000070: 6312 e1bd 42b8 4b3e e86d 00be 4b81 87bc
00000080: ea3a 933e 39c8 19be cac0 923c 3be7 1bbd
00000090: 5fc5 543d 7d24 5a3e 20b2 78bd 8f68 863d
000000a0: ac88 1d3e 6b53 d13d 7e3a 7abe 865e 29bd
000000b0: ced1 873d df92 623e e579 01be 2c2d 38be
000000c0: 1b40 32be 9ed9 543d 129f 17be 8e27 14be
000000d0: a683 1dbe 358b b03d 280d 96be f4d8 abbd
000000e0: 0c49 31be e461 acbd 57df 2ebd 04e0 12bd
000000f0: 1ee0 813e f4bd edbc 39b0 1ebe 06bb 473e
00000100: acbb 913c 39b1 773d 8e22 8cbd edab 043e
00000110: 8b8f 023e 35a3 633e 7878 81be 1173 fc3d
00000120: 7c13 f93d 7378 04bd d106 503e 654f 8bbd
00000130: 4294 153e 4e6c 173e 4488 433e 7571 0d3c
00000140: c70d 98bc 4b18 b6bd ccdc c03e 2b66 71be
00000150: 57cd 14be e81f 5e3e b400 7bbe 527b 60bd
00000160: 4075 ce3d 19fe bb3d 3203 eebd 7b58 713e
00000170: ce8b c43d 81c2 253d cb04 5abe a0fe e03b
00000180: 2f09 90bc c010 223e 49de 96be ac27 35bd
00000190: 05f5 64be c342 653c b782 dc3d 3bab a43d
000001a0: 1a2d 293d 5829 21be c0da 1cbe 08a9 1dbe
000001b0: 379b 3a3e 695a 0c3e cf39 edbd d23f a13e
000001c0: 3009 ce3d 7d98 94bc 04dd 1b3d 80d6 b2bd
000001d0: caa9 8bbe 0cc4 0fbd 0faa 913c 992b c23e
000001e0: 5e3e 66bd b3de 41be 49a0 3c3d 9c60 123e
000001f0: 8a5a 44be 499d 59be 8a77 05be c594 7c3e
00000200: dca4 013e 6a6a 9b3d a6eb a4be 2c40 263e
00000210: 6014 dd3d 8938 c33d e6a9 a83d c921 e2bc
00000220: 74db 4a3e 8a74 193e 602b 323e d707 513e
00000230: 3bfa 1e3e c931 e4bd 299d 5b3d baf8 bebc
00000240: 710f e83d 0859 bebe 8367 143a 86b9 d53d
00000250: 05c0 27be 20d9 ed3d 123b e0bd 438f aebc
00000260: ccd0 12bd dd23 06be a73c 3e3d 6268 d5be
00000270: 7439 1e3d 5465 0fbc 647e 7f3d fb1f b7bc
00000280: 5143 4fbe 9cd1 743e b96c 18bd cf60 353e
00000290: e362 313d 0648 053d 36dd 0cbe bdba 48be
000002a0: f2b1 3b3e eda5 66bd 6ba1 efbd 5ca9 b03d
000002b0: be5a 82bd 10d0 993e 6ebe e9bd 5262 8bbe
000002c0: 0f7f 72bd f3a4 67bd 44fd 123e 8a7e 82bc
000002d0: e72a 8d3e 12ce 7abe 752c 3d3c a586 abbd
000002e0: e307 f73d 1a27 b8bd 3300 ff3c 0a21 acbc
000002f0: 9b1e acbd d6b4 c33e 2c42 42bd 0049 853e
00000300: 58b9 503d abf9 173e 6dff 34be d363 9abe
00000310: 3364 303e 058f 7b3e ade6 823e 81c5 843e
00000320: ad72 d4bd 4a14 db3d db18 bbbd 82be 31be
00000330: 5da3 98bd 6a69 b2bc ce39 cdbd 2ca5 c9bc
00000340: 8cf1 653e 2ca4 a13e d47d a2bc c3a2 3b3d
00000350: 9072 bc3d 7e93 4e3e deb6 283c e914 3f3d
00000360: aaa4 19be d4ce 323e 4fe9 c0bc 3df6 b33a
00000370: ad93 3b3e 03e1 633e 2944 213e aff1 1d3c
00000380: 3a5b a63c 8323 e43d 2686 173d 7749 febd
00000390: c5b2 40be bdfe 783d 8e6a ab3d 5701 223e
000003a0: 996c 83be b273 8fbd aaeb 8f3e d484 12be
000003b0: bac0 44bd 5f22 b6bd d818 aebd 2f47 b93e
000003c0: 2dd8 fc3c 6608 d73d 3b74 34bc ddd6 ba3d
000003d0: 00bc 343d 0435 8bbe db6e 863d 819d 25be
000003e0: 5889 06be cc63 1cbe 6b0a 66bd e84e fb3d
000003f0: 3ffa 873d 9c88 f23d d0e9 073e 20e5 6a3d

fc3.bias f4 [10]
-0.0059549278 -0.4485066 0.09574705 0.12287436 0.3433841 0.052148703 0.08513302 -0.14866257
0.31051868 -0.40317154
00000000: 8e21 c3bb a8a2 e5be 0817 c43d 8da5 fb3d
00000010: 0ad0 af3e e199 553d 395a ae3d 003b 18be
00000020: 4efc 9e3e 806c cebe
